…
save dir is: ../../../trained_models/step_5_retrain_after_step_4/train_after_second_pruning_prunratio0.85_2024050312/
***Use device:cuda:0
length of samples:651
config is [5, 32, 10, 8, 17, 18, 27, 39, 34, 41, 72, 3]
+----------------------------------------------------------------------------+
+                           Pytorch Model Summary                            +
------------------------------------------------------------------------------
   Layer (type)       Input Shape      Output Shape    Param #      FLOPS #
==============================================================================
       Conv2d-1     (1, 1, 30225)     (5, 1, 15109)         45      679,905
  BatchNorm2d-2     (5, 1, 15109)     (5, 1, 15109)         10            0
         ReLu-3     (5, 1, 15109)     (5, 1, 15109)          0       75,545
       Conv2d-4     (5, 1, 15109)     (32, 1, 7553)        800    6,042,400
  BatchNorm2d-5     (32, 1, 7553)     (32, 1, 7553)         64            0
         ReLu-6     (32, 1, 7553)     (32, 1, 7553)          0      241,696
    MaxPool2d-7     (32, 1, 7553)      (32, 1, 151)          0      241,600
      Permute-8      (32, 1, 151)      (1, 32, 151)          0            0
       Conv2d-9      (1, 32, 151)     (10, 32, 151)         90      434,880
 BatchNorm2d-10     (10, 32, 151)     (10, 32, 151)         20            0
        ReLu-11     (10, 32, 151)     (10, 32, 151)          0       48,320
   MaxPool2d-12     (10, 32, 151)      (10, 16, 75)          0       48,000
      Conv2d-13      (10, 16, 75)       (8, 16, 75)        720      864,000
 BatchNorm2d-14       (8, 16, 75)       (8, 16, 75)         16            0
        ReLu-15       (8, 16, 75)       (8, 16, 75)          0        9,600
      Conv2d-16       (8, 16, 75)      (17, 16, 75)      1,224    1,468,800
 BatchNorm2d-17      (17, 16, 75)      (17, 16, 75)         34            0
        ReLu-18      (17, 16, 75)      (17, 16, 75)          0       20,400
   MaxPool2d-19      (17, 16, 75)       (17, 8, 37)          0       20,128
      Conv2d-20       (17, 8, 37)       (18, 8, 37)      2,754      815,184
 BatchNorm2d-21       (18, 8, 37)       (18, 8, 37)         36            0
        ReLu-22       (18, 8, 37)       (18, 8, 37)          0        5,328
      Conv2d-23       (18, 8, 37)       (27, 8, 37)      4,374    1,294,704
 BatchNorm2d-24       (27, 8, 37)       (27, 8, 37)         54            0
        ReLu-25       (27, 8, 37)       (27, 8, 37)          0        7,992
   MaxPool2d-26       (27, 8, 37)       (27, 4, 18)          0        7,776
      Conv2d-27       (27, 4, 18)       (39, 4, 18)      9,477      682,344
 BatchNorm2d-28       (39, 4, 18)       (39, 4, 18)         78            0
        ReLu-29       (39, 4, 18)       (39, 4, 18)          0        2,808
      Conv2d-30       (39, 4, 18)       (34, 4, 18)     11,934      859,248
 BatchNorm2d-31       (34, 4, 18)       (34, 4, 18)         68            0
        ReLu-32       (34, 4, 18)       (34, 4, 18)          0        2,448
   MaxPool2d-33       (34, 4, 18)        (34, 2, 9)          0        2,448
      Conv2d-34        (34, 2, 9)        (41, 2, 9)     12,546      225,828
 BatchNorm2d-35        (41, 2, 9)        (41, 2, 9)         82            0
        ReLu-36        (41, 2, 9)        (41, 2, 9)          0          738
      Conv2d-37        (41, 2, 9)        (72, 2, 9)     26,568      478,224
 BatchNorm2d-38        (72, 2, 9)        (72, 2, 9)        144            0
        ReLu-39        (72, 2, 9)        (72, 2, 9)          0        1,296
   MaxPool2d-40        (72, 2, 9)        (72, 1, 4)          0        1,152
      Conv2d-41        (72, 1, 4)         (3, 1, 4)        216          864
 BatchNorm2d-42         (3, 1, 4)         (3, 1, 4)          6            0
        ReLu-43         (3, 1, 4)         (3, 1, 4)          0           12
   AvgPool2d-44         (3, 1, 4)         (3, 1, 1)          0           12
     Flatten-45         (3, 1, 1)            (1, 3)          0            0
      Linear-46            (1, 3)            (1, 3)         12           12
     Softmax-47            (1, 3)            (1, 3)          0            3
==============================================================================
Total Params: 71,372
Total FLOPs : 14,583,695
------------------------------------------------------------------------------
Input size (MB) : 0.12
Params size (MB): 0.27
Total size (MB) : 0.39
------------------------------------------------------------------------------

sfeb.0.weight:True
sfeb.1.weight:True
…
